…
dist-packages (1.8.0)\n"]},{"output_type":"execute_result","data":{"text/plain":["====================================================================================================\n","Layer (type:depth-idx)                             Output Shape              Param #\n","====================================================================================================\n","GPT2LMHeadModel                                    --                        --\n","├─GPT2Model: 1-1                                   --                        --\n","│    └─Embedding: 2-1                              [1, 3, 768]               38,597,376\n","│    └─Embedding: 2-2                              [1, 3, 768]               786,432\n","│    └─Dropout: 2-3                                [1, 3, 768]               --\n","│    └─ModuleList: 2-4                             --                        --\n","│    │    └─GPT2Block: 3-1                         [1, 3, 768]               7,087,872\n","│    │    └─GPT2Block: 3-2                         [1, 3, 768]               7,087,872\n","│    │    └─GPT2Block: 3-3                         [1, 3, 768]               7,087,872\n","│    │    └─GPT2Block: 3-4                         [1, 3, 768]               7,087,872\n","│    │    └─GPT2Block: 3-5                         [1, 3, 768]               7,087,872\n","│    │    └─GPT2Block: 3-6                         [1, 3, 768]               7,087,872\n","│    │    └─GPT2Block: 3-7                         [1, 3, 768]               7,087,872\n","│    │    └─GPT2Block: 3-8                         [1, 3, 768]               7,087,872\n","│    │    └─GPT2Block: 3-9                         [1, 3, 768]               7,087,872\n","│    │    └─GPT2Block: 3-10                        [1, 3, 768]               7,087,872\n","│    │    └─GPT2Block: 3-11                        [1, 3, 768]               7,087,872\n","│    │    └─GPT2Block: 3-12                        [1, 3, 768]               7,087,872\n","│    └─LayerNorm: 2-5                              [1, 3, 768]               1,536\n","├─Linear: 1-2                                      [1, 3, 50257]             38,597,376\n","====================================================================================================\n","Total params: 163,037,184\n","Trainable params: 163,037,184\n","Non-trainable params: 0\n","Total mult-adds (Units.GIGABYTES): 163.34\n","====================================================================================================\n","Input size (MB): 0.00\n","Forward/backward pass
…
